mp3-code/net.model (torch, 790159 bytes, 4 tensors)

weight f4 [64, 3072]
000000 b0 00 59 3c a8 8e 5c 3c 7c 98 99 bb 05 26 8a 3c
       0.013244793 0.013461746 -0.004687367 0.016863832
000010 8a b8 97 bb 1a e1 33 3b 20 9b 1e bc c3 76 21 3c
       -0.004630153 0.0027447403 -0.009680539 0.009854975
000020 e2 ad 72 3c 7c 4a 89 bc 69 0a 3b 3c bd 0b 20 bb
       0.014811965 -0.01675915 0.011416056 -0.002442106
000030 b2 aa 08 3c 1e f5 fc 3a 20 ae 1b 3c b9 0d ff ba
       0.008341478 0.0019299125 0.009501964 -0.0019459046
000040 2d fa 6c 3c b4 20 85 3b a7 3f 0f bc 0c 8e 33 3b
       0.014463943 0.0040627364 -0.008743203 0.00273979
000050 f3 97 05 bc c5 6d 50 ba 19 ad d2 bb a5 9f 4b 3c
       -0.008153903 -0.0007950927 -0.0064293263 0.012428199
000060 d2 58 55 bc bd 30 cf bb 68 de 94 bb 81 1f 36 bc
       -0.013021665 -0.0063229487 -0.0045431145 -0.01111591
000070 05 d1 6a 39 07 80 9b bc 8f 48 62 3c 62 8d 5a bc
       0.00022393845 -0.018981947 0.013811245 -0.013339372
000080 78 9c 40 3c 9e 08 34 ba cf 10 ef bb 5b c4 25 3c
       0.011756055 -0.0006867739 -0.007295705 0.010117616
000090 c4 75 7d b8 11 00 46 3c c5 7f ca ba 00 cc 15 bc
       -6.042958e-05 0.012084977 -0.0015449455 -0.009142876
0000a0 4a d9 fe 3a ae 99 0c bc 4a f3 63 3b 81 aa 29 3c
       0.0019443419 -0.008581562 0.0034782463 0.010355593
0000b0 6a 85 47 3b c5 de 4c bc 79 ed 0a 3c 4a d6 f7 3a
       0.0030444511 -0.012504284 0.008479469 0.0018908468
0000c0 0f 7a e1 3b f6 a9 4f bc cb 0b aa bc f7 e0 17 bc
       0.0068810056 -0.012674799 -0.020757576 -0.009269944
0000d0 6e 5d 80 bc 1b 65 80 3c df 1c b5 3b 00 e2 bf 3b
       -0.01566955 0.01567321 0.0055271233 0.0058557987
0000e0 22 4f ca 3b 1c 03 b2 3a d5 35 4b 3c 08 d9 74 bc
       0.006173984 0.0013581249 0.012402971 -0.014944322
0000f0 e0 5f 8b 3a 9a 84 59 bc 55 b3 73 3b 2a 44 92 ba
       0.0010633431 -0.013276244 0.0037185748 -0.001115923
000100 fc a6 8c 3a 96 63 09 bc 38 58 51 3c c9 85 6f bc
       0.0010730918 -0.00838556 0.012777381 -0.014619299
000110 1b 3d 80 bc 76 56 6c bc 5b ee 29 3c b0 bc 56 ba
       -0.015654137 -0.014424911 0.01037177 -0.0008191569
000120 28 3f 54 3c dd ae 96 bc d4 d9 af bc 75 32 9f bc
       0.012954511 -0.018393928 -0.021466173 -0.01943324
000130 a4 e8 8a bc 3e 87 76 3b 2c b7 00 3b 43 fc 2c 3c
       -0.016956635 0.0037617232 0.001964043 0.010558191
000140 d6 b1 5a bc 4b a8 72 bc fd be e2 3b d1 97 08 bc
       -0.013348063 -0.014810632 0.0069197402 -0.008336977
000150 54 b7 23 3c 84 40 8d bb a0 2a 2e 3c c8 e6 86 bc
       0.009992439 -0.0043106694 0.01063028 -0.016467467
000160 bd ca 35 bc 84 17 b5 3b 78 4a 0e 3b 76 61 8f bb
       -0.0110957 0.005526485 0.0021711867 -0.004375632
000170 2f d7 38 3c cd ad 3d 3c 68 ba 5c bc 23 8e ba bb
       0.0112817725 0.011577082 -0.013472177 -0.0056932135
000180 a4 d0 62 3c 1c f5 26 bc 90 8e ea bb 56 68 89 bc
       0.013843689 -0.010190275 -0.007158108 -0.016773384
000190 06 23 2c bc b6 5d db 3b 8e 6c 36 bb 57 6a 93 bc
       -0.010506397 0.006694521 -0.00278357 -0.017995043
0001a0 d5 f1 8b bb d0 f7 82 bc e1 32 67 bc 0d 75 07 bc
       -0.004270772 -0.015987307 -0.014111252 -0.008267653
0001b0 2d 5f 41 bc 1a e7 0f bc 0e ab 85 3c e1 a9 45 3b
       -0.011802477 -0.008783126 0.016316917 0.003016107
0001c0 60 86 e6 3b 2b 4e 56 bc fd cd 11 bc 74 5c a7 bb
       0.0070350617 -0.01308016 -0.008899209 -0.005107457
0001d0 89 c2 1d 3b 51 2b 56 bc 28 3d 5b bb 1b cc d6 bb
       0.002407225 -0.013071851 -0.00334532 -0.006555093
0001e0 4a af 49 3b 2e f6 8a bb 85 51 07 ba 1f 7a 27 bc
       0.0030774646 -0.0042407727 -0.00051619887 -0.010221987
0001f0 8f d3 3a bc 72 61 12 bc 40 34 b4 bb fb f1 1c bc
       -0.011402979 -0.008934366 -0.0054993927 -0.009579177
000200 44 8e 44 3c 7e 35 14 bc e3 7b 6d 3c c5 b6 d4 3b
       0.011996809 -0.009045957 0.014494869 0.0064915144
000210 43 1e 62 bc 1b 2d 94 3c 78 7e be b7 8a dc c3 bb
       -0.01380116 0.018087914 -2.2708657e-05 -0.005977218
000220 ea f1 91 bc 1b ea af bc 81 e4 ab 3b 81 11 54 bb
       -0.017815549 -0.021473935 0.0052457456 -0.0032359066
000230 23 2b 0d 3c 01 24 53 bc de e2 50 3c 4f 6b 5d bc
       0.008616242 -0.012887002 0.012749402 -0.013514354
000240 f8 6e 1f bb 92 18 a4 3b 04 3a f8 3b e7 7b 28 3c
       -0.0024327617 0.005007812 0.0075752754 0.010283447
000250 72 19 4d 3c 82 f1 4b bc e1 be 20 3c 14 c1 37 bb
       0.012518274 -0.012447717 0.009811134 -0.0028038668
000260 d5 39 93 3b 4c 6e 23 bc b6 c5 89 3c 65 75 46 bc
       0.004492978 -0.009975027 0.016817909 -0.01211295
000270 fa 45 13 3c a0 99 da 3b 6a ef 9d 3b f9 ca c7 bb
       0.008988852 0.0066711456 0.0048198 -0.0060971943
000280 06 d3 61 3c 3d e1 1a 3b 93 10 ee 3a 57 58 83 bc
       0.013783222 0.0023632788 0.0018162898 -0.016033335
000290 c4 d5 fe 3b bd 14 1c ba 7f 59 c9 bb c8 e6 8d 3c
       0.0077769477 -0.0005954018 -0.006144702 0.01732196
0002a0 7e 03 ac 3a a1 6f 40 bc 4f f9 f9 bb 7c e2 9f ba
       0.0013123599 -0.011745364 -0.007628597 -0.0012198235
0002b0 a3 69 c9 3b 0c bd 09 bc 3a 90 71 bc 51 66 3b bc
       0.006146626 -0.008406889 -0.014743859 -0.011437968
0002c0 0d 3b 82 bc a6 48 7e 3b 68 24 23 3c 2b cd 99 bc
       -0.015897298 0.0038800626 0.00995741 -0.01877459
0002d0 7a a9 7c 3b f0 1c 42 3c ba 13 f1 3b e8 31 4f bb
       0.0038553164 0.01184772 0.007357088 -0.003161544
0002e0 9b 7b 7a 3c f4 e8 4d 3c 50 f9 21 3c ef 0a 1d bb
       0.015288259 0.012567747 0.009886101 -0.0023962816
0002f0 44 08 dc bb 04 23 13 3b 66 ce c2 bb dd 1d a7 bb
       -0.0067148525 0.002245129 -0.005945015 -0.0050999955
000300 b6 91 23 3c e5 45 5b 3c 41 d8 1e bb f6 5d 4e bb
       0.009983471 0.013383363 -0.0024237784 -0.003148911
000310 86 14 1a bb d5 51 5e bb 9f 45 9f 3b a0 c3 e7 3b
       -0.0023510768 -0.0033923287 0.0048605944 0.007072881
000320 28 e5 88 bc af 2f b0 bb 8a 51 95 3c dd 97 cc 3b
       -0.016710833 -0.005376778 0.018227357 0.0062436895
000330 98 4b fa ba 6e ce 4e bc 0f 6a 43 bc 37 ff 89 bc
       -0.0019096015 -0.012622459 -0.011927142 -0.016845329
000340 e0 f3 ee bb 58 01 24 3b a3 0c 47 3c 4c 43 3e 3c
       -0.0072922558 0.0025025215 0.012149009 0.0116127245
000350 0f 42 62 bc 2a 8d 1a bc bb ea 7a ba e6 62 af 3c
       -0.013809695 -0.00943307 -0.0009571721 0.021409463
000360 07 4c 01 3c b8 55 e7 ba 5b 19 54 3c c2 24 89 bb
       0.0078916615 -0.0017649448 0.012945498 -0.00418529
000370 1d 49 6f bc ee 39 28 3c 3c 47 58 bc 77 f8 97 bb
       -0.014604834 0.010267718 -0.013200577 -0.0046377736
000380 75 c5 92 bc 8c b7 37 3c 9f 27 a5 3c 01 f2 3e 3c
       -0.01791642 0.011213195 0.020160494 0.011654378
000390 59 9a 53 bc 2b 5d 9c bc 90 85 7f bc 2a b1 62 3c
       -0.012915217 -0.019087395 -0.015595809 0.0138361845
0003a0 ca 51 2e 3c b8 82 6b 3c 9d 17 0b 3c ad 5f 15 3b
       0.010639617 0.0143744275 0.008489517 0.0022792623
0003b0 cd 34 8c 3a 36 d5 62 bc 23 8f 78 bc be 67 75 bc
       0.0010696888 -0.013844779 -0.015170845 -0.014978347
0003c0 c9 a5 e0 3b 9a 8b 1d bc f3 ad e9 ba 90 41 fd bb
       0.0068557006 -0.009615803 -0.001782833 -0.007728763
0003d0 79 db c2 b9 59 d6 3e bc 88 ad 2d bc 0a 39 32 3c
       -0.00037166083 -0.011647784 -0.010600455 0.010877857
0003e0 0c 1d 16 ba d9 62 53 3c 4b 9f 3a 3a c4 b4 0a bc
       -0.0005726374 0.012901985 0.00071190734 -0.008465949
0003f0 c9 ee f4 bb d4 b5 51 bc ec 13 05 bc 95 43 74 bc
       -0.0074747545 -0.012799699 -0.0081224255 -0.014908691

bias f4 [64]
000000 f8 3d 49 3c c1 23 4c 3c 78 5a f3 ba ae df a6 3b
       0.012282841 0.012459696 -0.001856639 0.0050925827
000010 44 e9 af 3c 69 a2 42 3c 11 e3 92 3c cd ec b4 bb
       0.021473534 0.011879542 0.01793054 -0.005521393
000020 c0 6c 74 bc 46 70 e1 ba c1 ee 91 bb be f7 3b 3c
       -0.014918506 -0.0017199598 -0.0044535105 0.011472641
000030 ba ff 07 3c d5 ee 2a bc 7e 17 25 3c 6e 02 5a bc
       0.008300716 -0.010432919 0.010076402 -0.013306243
000040 be 4d dd 3b a0 50 d5 bb 47 7f 56 bc a6 81 a8 3c
       0.0067536524 -0.0065098554 -0.013091869 0.020569634
000050 d8 ff 0c bb 66 dc 82 3c 6a ab 8d bc b1 07 0c 3c
       -0.00215148 0.015974235 -0.01729365 0.008546756
000060 e3 dd c0 38 bc 1b 72 3c 45 39 82 bb 50 f6 45 3c
       9.196603e-05 0.01477712 -0.003974112 0.012082651
000070 c9 6f bf 3a 00 d4 f0 3b d3 49 cb bc 58 83 7b 3a
       0.0014605458 0.007349491 -0.024815476 0.0009594462
000080 b4 f1 13 3c ff 3a fe bb 56 f0 2b bc 6a 3c 5a 3c
       0.0090297945 -0.0077584977 -0.010494312 0.013320068
000090 0e f5 52 3b 13 6c 1c bc 3b a0 49 3d dd b5 d1 3b
       0.003218952 -0.009547251 0.049225073 0.0063998536
0000a0 1c 09 63 3c 00 f4 68 3b 87 1b 57 3c a8 da df bb
       0.013857152 0.0035545826 0.013129122 -0.006831486
0000b0 62 17 16 3b 89 16 6d 3c 9f 3e 43 ba c3 d3 22 bc
       0.002290212 0.014470705 -0.0007447991 -0.009938183
0000c0 68 91 00 3c 3c 68 93 bc ee 68 8d bc 12 f8 df 3b
       0.007847168 -0.017994039 -0.017261948 0.006834992
0000d0 90 54 5b bc 50 57 e8 3a 5c 16 4f bc f5 81 c2 3b
       -0.0133868605 0.0017726216 -0.012639608 0.0059359022
0000e0 ed af 5c 3a fe 6d ad bc 9c 69 7e 3c 2d 3c b6 3b
       0.0008418549 -0.021170612 0.015528109 0.0055613727
0000f0 21 a9 3d 3c 50 ed ef bb 6d c2 7e bc b0 1a 4d bc
       0.011575968 -0.007321991 -0.015549284 -0.01251857

weight f4 [2, 64]
000000 f7 d4 01 3e 81 fb 8c bc d9 55 63 be 7f 1c 08 3e
       0.12678896 -0.01720977 -0.22200717 0.1329212
000010 0a 23 98 3e 01 a1 be be f3 c3 c3 be da ef 71 3d
       0.29714233 -0.3723221 -0.38235435 0.05906663
000020 e3 d8 70 be 5a 68 95 3e 5f 78 9b 3d c5 df 0c 3c
       -0.23520236 0.29181176 0.07591318 0.008598273
000030 33 b0 a1 bc f5 1d cb be a0 d9 97 bd 00 ab 00 be
       -0.019737339 -0.39671293 -0.074145555 -0.12565231
000040 31 ad bf bd 5f 0b 0d 3d 0d c2 b3 3d 91 4b bc 3e
       -0.093592055 0.034434672 0.087772466 0.36776403
000050 18 9f 67 bd 9f 0b 21 bd 08 2d 6c be ab 4d a7 be
       -0.056548208 -0.039317723 -0.23064053 -0.32676443
000060 12 b9 19 3e 6a 63 ad 3d 69 d2 b7 be dd f3 0b be
       0.15012005 0.08466227 -0.35902718 -0.13667245
000070 6c 6d c8 be d0 0b 22 be 60 f4 ab be 5a 6e e6 be
       -0.39145982 -0.15824819 -0.3358488 -0.45006067
000080 a4 1c 95 3e 7e df a8 3e ca 3b a9 3e 59 44 c7 3e
       0.29123414 0.3298301 0.33053428 0.38919333
000090 a1 87 61 3e ff 14 b3 3e bb cd 8c 3e 11 39 90 3e
       0.22024395 0.34976956 0.2750071 0.28168538
0000a0 e3 43 55 be 07 1f ae 3e 38 83 6e be 85 18 17 be
       -0.20826678 0.34008047 -0.23292243 -0.14755447
0000b0 0f 31 98 be f4 35 51 3e 23 03 d4 3e 2a 04 59 3e
       -0.2972493 0.20430738 0.41408643 0.21192995
0000c0 cf 16 52 3e 2b 12 3a 3e 44 eb 58 be e9 9b 7f 3e
       0.20516513 0.18170993 -0.21183497 0.24961819
0000d0 56 a9 0c be d5 c5 5c be 2f c0 e5 3e e0 44 17 3e
       -0.13736472 -0.21559842 0.44873187 0.14772367
0000e0 71 dd 94 be 69 8d a3 3e 42 f3 d1 be b3 e3 f8 3e
       -0.29075196 0.31943825 -0.41005903 0.4861122
0000f0 90 13 df be 59 59 d7 be 24 2c e4 be b7 18 b6 3e
       -0.43569613 -0.42060354 -0.44564927 0.3556573
000100 7a a6 52 be 3f bb 95 bd 72 05 a4 3e 0f 32 67 bb
       -0.20571318 -0.07311105 0.32035404 -0.003527764
000110 fc 71 d2 be 21 55 96 3e 55 ca ed 3e b3 d6 8e 3d
       -0.41102588 0.29361823 0.4644343 0.069745444
000120 26 18 9d 3e d2 ce 92 be 00 5b ef bd 6b cd 18 3d
       0.30682486 -0.28673416 -0.11687279 0.037305277
000130 43 f1 67 3e 55 e7 e4 3e 43 e1 6f 3e 65 53 46 3d
       0.22650628 0.44707742 0.23425774 0.048419375
000140 c1 f9 44 3e a4 a9 8f bd c6 01 f4 3d 4b 51 91 be
       0.19235899 -0.07014778 0.11914401 -0.28382334
000150 90 68 73 3e 4c be 3d be 4e ec 4c bc 09 dc aa 3e
       0.23770356 -0.18529624 -0.012507511 0.33370999
000160 2e 94 94 be 75 20 9e bc 85 ec d3 3e 29 87 91 3e
       -0.29019302 -0.019302586 0.41391388 0.28423432
000170 40 2a b1 3e 47 0a b0 3e e3 02 8b 3e 0b 2c f0 3e
       0.34602547 0.3438284 0.2715064 0.46908602
000180 b5 4d ad be 68 4f b4 be ce 84 9f be 7f 58 c0 be
       -0.33848348 -0.35216832 -0.3115601 -0.37567517
000190 87 0f af be 6d 2e a7 be 25 ff c6 be f0 15 9d be
       -0.34191534 -0.32652608 -0.38866535 -0.306808
0001a0 6b 95 ab 3e f9 77 c3 be 61 05 50 3e c6 8d f9 3d
       0.33512434 -0.3817747 0.20314552 0.12185244
0001b0 e2 45 8d 3e 69 b5 4f be 91 e2 d4 be f5 7d ff bd
       0.2759238 -0.20284046 -0.41579106 -0.12475196
0001c0 42 9f c7 3c d1 8c 00 be f3 20 65 3d 7b 32 7c be
       0.024367932 -0.12553717 0.055939626 -0.24628632
0001d0 ac b1 02 3e 6e b7 c4 3e 00 7a e7 be 5d 27 91 be
       0.12763089 0.38421196 -0.45210266 -0.28350344
0001e0 4b 0d d4 3e 99 84 a0 be fb a1 9a 3e 27 06 f4 be
       0.41416392 -0.31351164 0.30201706 -0.47660944
0001f0 09 69 d0 3e ed 9f a0 3e 16 e1 9f 3e 15 d0 a6 be
       0.40705135 0.31372014 0.31226414 -0.3258063

bias f4 [2]
000000 1c 73 79 3d 5a 1b 8b bd
       0.060900792 -0.06792326
